ai/model.pth (torch, 32296 bytes, 8 tensors)

encoder.0.weight f4 [16, 3, 3, 3]
000000 ec 20 00 bd 5a 51 96 3d 74 d2 09 3e 77 41 d8 3d
       -0.031281397 0.07339735 0.13459188 0.105593614
000010 bd 54 69 3e 5a 1f 8b 3d 76 31 be 3e 64 a3 59 3e
       0.22786231 0.06793089 0.3714711 0.21253735
000020 b9 fd 2f 3e 71 dc 0c 3e 45 e6 12 bd 49 0d 75 bc
       0.17186631 0.13755967 -0.035864133 -0.014956781
000030 36 2f 7d be 0d fc 6e be 8b 25 7e 3c 4a 47 36 bc
       -0.24725041 -0.23338337 0.015511881 -0.011125395
000040 d7 f3 3a 3d ee 42 3d bd 7c 23 00 bd 47 f3 51 be
       0.0456427 -0.046206407 -0.03128384 -0.20502959
000050 05 1a 14 3d 1a c7 3e be b5 c4 aa be 35 b7 4a be
       0.036157627 -0.18630639 -0.333532 -0.1979645
000060 4e 68 ef 3d 05 5e 4d 3c 21 f9 44 3e 20 53 81 bd
       0.116898164 0.012534623 0.1923566 -0.06314683
000070 10 dc d6 bc c5 4b 5f 3b 71 7d 5a bd 5c 3a 42 be
       -0.02622798 0.0034072262 -0.053342286 -0.18967575
000080 da 35 b4 bd 79 44 4d 3d b7 3b a5 bd 55 7c 4d 3d
       -0.08799334 0.05011413 -0.0806803 0.0501674
000090 34 cc b1 3d 9f be 05 be 0d f2 c0 3d 61 6d e1 3b
       0.08681527 -0.13060997 0.094211675 0.006879494
0000a0 6b 42 89 be 74 24 48 bb e5 c6 d2 3d eb 58 8b bd
       -0.26808485 -0.0030539306 0.10291842 -0.06804069
0000b0 14 62 67 bd 1e 66 5b bc 69 7c 5e bd 15 ec 66 bc
       -0.05649002 -0.013391046 -0.054317866 -0.014094372
0000c0 a3 da 42 bb 9c 8c ff bd ef 87 22 3d a9 85 db bd
       -0.0029732368 -0.12477991 0.039680418 -0.10718853
0000d0 1e 64 b9 3d 66 58 89 3c 93 00 0a 3d 2e 61 7a 3b
       0.09052299 0.016765784 0.033691954 0.0038204896
0000e0 46 2f 6a be eb 75 9f 3d 4e d5 6a bd b8 46 19 3e
       -0.22869596 0.07786163 -0.05733233 0.14968383
0000f0 77 30 c9 3e 56 53 1e bd 8a 8c 9b bd 6c a1 ed 3c
       0.39294788 -0.038653694 -0.07595165 0.029007636
000100 98 3e 4b be ea 85 45 be 2d e7 57 3e fe 56 1b be
       -0.19848096 -0.19289365 0.2108428 -0.15169904
000110 51 90 6e be 2c b4 2c 3e 4e 0d 1c ba a2 be 1e be
       -0.2329724 0.16865605 -0.000595291 -0.15502408
000120 58 16 65 3c 08 3f 0e be 0a 97 f0 bd 92 97 67 bc
       0.013982378 -0.13891232 -0.117475584 -0.014135258
000130 ec 69 88 be a0 ca db bd 13 3b 33 3e a9 6c 03 be
       -0.26643312 -0.10732007 0.17503004 -0.1283442
000140 22 17 c8 bd cf a7 40 3e de bd 3c 3c eb 47 f5 3d
       -0.09770037 0.18814014 0.011519877 0.11976608
000150 22 e7 98 be e8 8e a9 be d4 2e 9e bd 3d c4 d7 bd
       -0.2986384 -0.3311684 -0.077237755 -0.10535476
000160 de 56 93 be 71 8f 00 3e 29 f3 4b 3e c3 59 56 3e
       -0.28777212 0.12554719 0.19916977 0.20932679
000170 20 eb 9c 3e 66 c8 a9 bc d2 40 39 be 18 80 51 3e
       0.30648136 -0.02072544 -0.18091133 0.2045902
000180 23 b2 df bb 66 27 b3 3c 5f 76 e3 3d 6c c1 1e bc
       -0.0068266555 0.021869373 0.11106562 -0.00968967
000190 f1 03 08 be df 36 5c 3b 72 4a 9b bd 81 f5 db be
       -0.13282754 0.0033602042 -0.07582559 -0.42960742
0001a0 de 7b 60 be 6a bf f1 bd 80 b3 fe bd 93 34 25 3e
       -0.21922252 -0.118040875 -0.12436581 0.16133337
0001b0 c3 e0 74 bd 4e b7 c7 3c 80 ba f4 bb 8a a9 bf bb
       -0.059784662 0.024379399 -0.0074685216 -0.005849068
0001c0 23 2e 62 bd df c1 2f bd 90 a2 0b be 2b 4a b3 bd
       -0.05521978 -0.0429095 -0.13636231 -0.08754381
0001d0 0d ab 97 3d d0 b5 2d 3c 25 15 5e 3c a3 20 e5 bd
       0.07405672 0.0106024295 0.013554846 -0.111878656
0001e0 02 2f bc bc f1 f6 8d bc a6 9d 98 bd 6c 12 1e be
       -0.022971634 -0.017329665 -0.07451944 -0.15436715
0001f0 5a ff 61 bd a7 7f 23 be bc 8f 60 3e 80 21 18 3e
       -0.055175163 -0.15966664 0.2192983 0.14856529
000200 0f 8c 8f bd df f0 c6 3e 04 29 bd 3e 71 fe 35 3e
       -0.07009136 0.38855645 0.36945355 0.17772843
000210 e7 d1 bb 3d 44 6f 9a 3d 6b d4 19 bc 2b 39 d3 3c
       0.09170895 0.075407535 -0.009389023 0.025784096
000220 3c bf cc be f7 01 38 be bb 7e 38 bd ea 19 f1 be
       -0.3998965 -0.179695 -0.045042735 -0.47090083
000230 ac 9b bb be d2 b7 9b 3e f1 13 39 3e 3e db 52 3e
       -0.36642206 0.3041368 0.18074013 0.20591447
000240 17 cd b6 bb c8 be 46 be 19 c0 e7 3b aa 80 3f bd
       -0.005578648 -0.19408715 0.0070724604 -0.046753563
000250 1a 4b ba be 96 e3 a5 be 76 00 d5 3d 95 cf d5 3d
       -0.36385423 -0.32400197 0.104004785 0.10439984
000260 64 b2 23 3c c1 d4 8b 3d 54 59 2e be bc ad df bd
       0.009991262 0.06827689 -0.17026263 -0.10921809
000270 b0 5c 45 3e 79 71 ab be aa 5c a2 bd a2 56 49 3e
       0.19273639 -0.3348501 -0.079278305 0.19661954
000280 77 58 2b 3e 3e cd f1 3d 0d 94 cc bd 73 34 00 be
       0.16732965 0.11806725 -0.09989176 -0.12520008
000290 96 c6 a2 be 8f f4 dd bd d3 d6 95 bb ba db 06 be
       -0.31792134 -0.108376615 -0.004572728 -0.13169757
0002a0 8a 4d db bd 7c 08 2f 3d be 5f a6 bd 9b 54 97 be
       -0.10708149 0.0427327 -0.0812373 -0.29556736
0002b0 b8 2d 2f 3e 75 36 ca bd df e3 3a bc 40 9d 7c 3e
       0.17107284 -0.09873668 -0.011406868 0.24669361
0002c0 1d e0 c6 3d cd ba 99 bd af d1 8f 3e 60 9c fe 3b
       0.09710715 -0.075063325 0.28089663 0.007770106
0002d0 1b bd ad bd c0 be 53 be 43 53 22 be cc 60 74 bb
       -0.08483335 -0.20678234 -0.15852074 -0.003728914
0002e0 78 e6 03 be a8 c9 2e bd a6 2b 5d bd 11 eb 7a bd
       -0.12880886 -0.042672783 -0.053996705 -0.061259333
0002f0 58 0a fe bc 47 81 b5 3e f3 ce f1 3d d5 cf 03 3e
       -0.031010792 0.35450193 0.118070506 0.1287225
000300 b0 0b 3a 3e 20 c2 17 3e 3c 49 52 bc 3c 81 ad 3e
       0.18168521 0.14820147 -0.012834843 0.3388766
000310 60 4d 16 bd 15 5e 94 3e 24 7d 90 be 51 af bc be
       -0.036694884 0.2897803 -0.28220475 -0.36852506
000320 fa e0 91 be ef 68 9e be d0 9b cf be 3a 42 ff bd
       -0.28491956 -0.30939433 -0.40548563 -0.124638036
000330 f2 8e 8b be 0c 3f d5 bd a3 d8 52 be 8c fc a4 3d
       -0.27257496 -0.10412416 -0.20590453 0.08055982
000340 ce 10 91 bd 8d 64 d3 3c a0 3a 2c be f6 53 ce bd
       -0.07083283 0.025804782 -0.16819239 -0.10074608
000350 fa 24 6a be a7 93 b9 bd af 3c 27 be a4 41 98 3d
       -0.22865668 -0.090613656 -0.16331743 0.07434395
000360 40 99 67 bc a9 0e 28 be f6 ed 8e be 19 91 80 bb
       -0.014135659 -0.16411842 -0.27915925 -0.003923547
000370 06 ad aa be 66 73 fe be f7 17 a9 bc be 09 ed be
       -0.3333513 -0.49697417 -0.02064131 -0.46296495
000380 5e fb a7 be 17 78 07 3e 14 b6 46 3d 09 07 83 3e
       -0.32808965 0.13229404 0.048513487 0.25591305
000390 7c 84 15 bc e5 16 4e bd 0a 7a 66 be 4b c5 95 3d
       -0.009125825 -0.050314803 -0.22507492 0.07313021
0003a0 fc 8e 3c 3c 92 44 05 bd fc 6f fd 3d 7d de 4b 3c
       0.0115086995 -0.032536097 0.12374875 0.012443182
0003b0 f0 6c 09 3d 36 4e e0 bd c4 7b e5 3c 32 64 18 bd
       0.033551157 -0.109524176 0.028013118 -0.03720493
0003c0 4c 87 5f 3d 0f 3b 23 bd 16 7e c4 bd d1 50 95 bd
       0.05457239 -0.039851245 -0.095943615 -0.07290805
0003d0 6a e2 12 be b5 92 7c 3d 4a 54 20 3c f3 29 61 be
       -0.14344183 0.06166335 0.009785721 -0.21988659
0003e0 ba 70 18 bd 29 61 c5 3c e4 cf 55 bc 53 b7 ad bd
       -0.03721688 0.024094181 -0.013050053 -0.08482232
0003f0 9f be 24 3e ae 21 3b 3e 72 39 f9 3d d9 fa d5 3e
       0.16088341 0.18274567 0.1216916 0.41792944

encoder.0.bias f4 [16]
000000 90 ec 81 3f e3 84 50 3f 05 d2 7a 3e 74 fc 40 3f
       1.0150318 0.8145277 0.24494179 0.7538521
000010 38 35 57 3f 79 b0 99 3e 8f 39 66 3f 4f 76 01 be
       0.8406558 0.3001745 0.8993158 -0.12642787
000020 e6 d1 e4 3e 67 73 b9 3e 7d 79 49 3e 75 a4 88 3e
       0.4469139 0.36220858 0.1967525 0.2668797
000030 da 0e cc 3e bf 7a 24 3d 7b 74 f2 3e 94 aa 22 3f
       0.3985508 0.040156122 0.47354493 0.6354153

encoder.3.weight f4 [32, 16, 3, 3]
000000 0d 3e a4 bd 78 06 6d ba a8 f4 fa 3d 4a af 93 3d
       -0.08019648 -0.00090417964 0.12253696 0.07211168
000010 95 9c 82 bc e0 be 0f bd e2 f1 c3 3d f2 2d e3 3d
       -0.015943805 -0.035094142 0.0956762 0.11092748
000020 35 27 22 3d e6 82 e7 3d 58 7a 86 3e 34 0b 10 3e
       0.039588172 0.11304264 0.26265216 0.14066774
000030 fa 68 b0 3e 20 46 d9 3e 73 32 52 3e 20 0b 17 3e
       0.3445509 0.42436314 0.20527057 0.14750338
000040 ec 5d 67 3e 94 a8 96 3d 58 59 bf 3c 24 f6 13 bc
       0.22594422 0.073563725 0.023358032 -0.0090308525
000050 ef 81 fd b9 3f 3c b6 3b ae 46 a3 bd f2 16 19 3d
       -0.00048352728 0.005561381 -0.079724655 0.037375398
000060 6e 05 b4 bc a3 ac 34 3e e0 81 d7 3c 91 c6 6a 3d
       -0.021975245 0.1764398 0.026307046 0.057318274
000070 9d 45 9a 3e 77 ee 1a be 37 dc b2 3e b6 f1 33 3e
       0.30131236 -0.1513003 0.34933636 0.17572674
000080 0b ca 1b bd a4 a2 5a 3e 5e c8 d0 3d bc af 17 be
       -0.03803448 0.21351105 0.10194467 -0.14813131
000090 b1 f1 1f bc 30 77 88 be d3 96 12 be c9 67 05 3e
       -0.009762214 -0.26653433 -0.14315347 0.13027872
0000a0 3d 33 b3 3d a6 05 b6 bc a4 89 08 3e bc f7 fc 3d
       0.08750007 -0.02221949 0.13333756 0.12351939
0000b0 d0 4d f9 3d a1 12 3c be 80 14 68 be 2f f7 1f be
       0.12173045 -0.18366481 -0.2266407 -0.15621637
0000c0 f3 71 a5 be d2 f6 81 be 6d 58 22 be ec b4 f8 bd
       -0.323135 -0.2538362 -0.15854044 -0.12143883
0000d0 3a 1a cd bb 5b 60 1f 3c e3 53 f3 3d 96 61 a6 3d
       -0.00625923 0.009727563 0.118812345 0.08124082
0000e0 b8 e1 a2 bc a8 d5 a6 3e 64 b1 11 3f f3 d1 76 3e
       -0.019883022 0.32584882 0.569113 0.24103527
0000f0 10 a4 09 3e 39 1a 43 3e 25 73 d1 3d d3 99 39 3d
       0.13441491 0.19052972 0.1022704 0.045312714
000100 e9 3c 86 3e ce f3 1e 3e c9 f0 0d be 34 aa a3 bd
       0.26218346 0.15522692 -0.13861383 -0.07991448
000110 d3 95 7f 3d 68 a6 2c bc 96 0f 0a 3e be cf 63 3d
       0.062398743 -0.010537721 0.13482508 0.05561804
000120 19 ee d4 3c 39 aa ad 3d 55 9e c7 bc 56 3c 7c 3e
       0.02599244 0.08479733 -0.02436749 0.24632391
000130 57 2a b6 3e ca 29 4c 3e 2b 9d 87 3d 07 5f 21 3e
       0.35579178 0.19937816 0.06621774 0.15758906
000140 3d 0b 7f 3b bd 19 59 3e f4 50 4b 3e 2f 17 2b 3e
       0.003891661 0.21201225 0.198551 0.16708063
000150 50 2b 9d 3e ff be d8 3d 1c 71 40 bd 40 19 af 3e
       0.30697107 0.105833046 -0.04698287 0.34198952
000160 0f 36 b0 3e 63 98 86 3d bc a5 44 bd e5 b8 b5 3d
       0.34416243 0.06572034 -0.04800962 0.088731565
000170 d3 61 a6 3d 1b 41 52 be e7 7a 9b be 0f 0c 38 be
       0.08124127 -0.20532648 -0.30367205 -0.1797335
000180 68 09 cb bd e7 68 ba bd 5d d2 ae bd 36 22 98 bd
       -0.099139035 -0.0910204 -0.08536217 -0.074284
000190 50 52 3c 3e 32 06 01 bd 08 f7 4c 3c 7c fa 26 3d
       0.18390775 -0.03150005 0.012510069 0.040766224
0001a0 8d e2 9e 3c e3 33 7f bb de 51 05 be 52 b4 b3 bd
       0.019395137 -0.003894084 -0.13019511 -0.08774628
0001b0 79 37 a0 3d 15 65 4e 3e 6a 23 10 bc bd df fb 3d
       0.078230806 0.20155747 -0.008797506 0.12298534
0001c0 95 47 a0 3e 1f f1 16 3e 55 38 ab bd a5 bb cb 3d
       0.31304613 0.14740418 -0.08360354 0.099479
0001d0 05 1d 3f be 6e 67 01 be fa e7 57 be 6c 08 4d be
       -0.18663414 -0.12637112 -0.21084586 -0.20022744
0001e0 1e 37 02 be 20 50 a4 be cc 0c c0 be 6d a0 84 bd
       -0.12716338 -0.3209238 -0.37509763 -0.06475911
0001f0 7c 8f 0e bf 71 3f c4 be 50 bf c2 3d 7d a9 9a 3e
       -0.5568769 -0.38329652 0.09509146 0.30207434
000200 b4 fa c1 bd b1 e6 f7 3e 85 37 36 3f 5d 4f 9d 3e
       -0.09471646 0.4841819 0.71178466 0.30724612
000210 59 2a 1d 3d 03 ba 64 3e a6 5a d6 bd 70 46 30 3b
       0.038370464 0.22336583 -0.104665086 0.0026897453
000220 cc 92 ba 3d 1a 94 ab bd 39 3f cc 3e d2 20 35 3e
       0.091100305 -0.083778575 0.39891985 0.17688301
000230 7e eb ff 3d 37 14 37 3d aa 34 9b bd 3e 75 1d be
       0.124960884 0.044697013 -0.07578404 -0.15376756
000240 ae 63 bf 3d 46 38 95 3e 7f 3e 8c 3e 8d ba b8 3e
       0.09345184 0.29144496 0.2739143 0.36079827
000250 5e 92 9f 3e fd 31 72 3e ab e3 b4 bd 2d 0f f6 3d
       0.31166357 0.23651882 -0.08832487 0.12014613
000260 b1 36 82 bd 86 8c 99 3d 58 3f 81 3e 4b 5f 47 3e
       -0.06358088 0.07497506 0.2524364 0.19469945
000270 b4 07 a2 3e 0b f4 d1 3e 0d 39 c3 3e 50 df 26 be
       0.31646502 0.41006503 0.38129464 -0.16296124
000280 0d 6c 36 3d 04 27 4d 3b 19 2b 47 3e 86 54 4a 3e
       0.04453664 0.0031303773 0.19450034 0.19758806
000290 b8 5b b2 3e 19 f1 60 3e 82 5a 97 3d 8e e8 53 3e
       0.348356 0.21966971 0.0739031 0.20694181
0002a0 ed a1 d4 bd f1 bf 21 3e d3 37 9c bc fa 0e 0f 3e
       -0.103824474 0.15795876 -0.019069588 0.13970557
0002b0 69 91 d4 3d 86 15 4d 3e 8c de c3 bd 18 92 70 3e
       0.10379297 0.20027742 -0.09563932 0.2349323
0002c0 7f 24 f4 3d 9d 19 4d bd 1f 8c 19 bb 75 ab 84 bd
       0.119210236 -0.050073255 -0.0023429466 -0.06478015
0002d0 00 14 a8 bd 7b 8a e3 bc 79 83 7f be 29 7f fa bd
       -0.0820694 -0.027775994 -0.24952497 -0.12231285
0002e0 e5 11 ba be a3 57 d4 be 12 81 43 be 94 b7 70 3d
       -0.36341777 -0.41473112 -0.19092205 0.058768824
0002f0 ea de 92 3d 02 ea 75 bc 49 79 4f 3e b1 07 6e 3e
       0.07171424 -0.015009405 0.2026111 0.23245122
000300 84 24 ed bb 29 9d 6e be 3a e9 e1 bd a8 1b 28 bd
       -0.007237019 -0.2330214 -0.110308126 -0.041042
000310 71 e0 9e 3c 85 12 79 bd 02 6f 60 3d 12 d2 c3 3e
       0.019394131 -0.060808677 0.054793365 0.38246208
000320 c2 23 d2 3d bd 7c 9f bd 53 bd 50 bd 89 e1 97 bd
       0.102607265 -0.07787464 -0.050961804 -0.07416064
000330 dc 51 56 be c8 46 88 3d 5e e9 84 bd 92 1d 89 bd
       -0.20929664 0.066541255 -0.06489824 -0.06695093
000340 7c 72 4c be 11 11 8c be c7 e5 87 bc d7 b0 30 be
       -0.19965547 -0.2735677 -0.016589059 -0.17254959
000350 7a 5a 5b bc f0 08 ae bd ca 46 40 be 64 3f 14 be
       -0.0133882705 -0.084977984 -0.18777004 -0.14477307
000360 55 63 d0 bd 5d f7 96 be a1 39 88 be db 44 31 3e
       -0.10175196 -0.29485598 -0.26606467 0.17311423
000370 bd 59 90 bd 7b b7 10 3e a6 fb 19 3d 07 e6 42 3d
       -0.07048366 0.14132492 0.037593506 0.047582652
000380 5a 10 08 bb 44 c4 5a bd 66 fc 27 bf 20 99 bd 3d
       -0.00207617 -0.05340983 -0.65619504 0.09257722
000390 62 59 90 3d ef 22 37 be cc 27 93 be d8 b2 c3 be
       0.070482984 -0.1788442 -0.287413 -0.38222384
0003a0 a5 67 e2 bc c0 f4 07 be 7e c1 81 bc 82 49 22 bd
       -0.027637312 -0.13276958 -0.015839335 -0.039620884
0003b0 0e 71 ee be 43 45 41 3c ca 29 aa bc ba 58 74 be
       -0.4657063 0.011796298 -0.02077188 -0.23861971
0003c0 88 7b 22 3e 09 da e5 bc 73 76 ab 3c 59 cb a4 bd
       0.15867436 -0.028058069 0.020930504 -0.08046598
0003d0 81 71 22 be 2d aa 43 be 5f e8 04 3d 5f 6f 91 3e
       -0.15863611 -0.19107886 0.03244817 0.28405282
0003e0 13 08 7a bd 10 53 e1 3d 1d 9a 4a 3d 59 0d 87 3d
       -0.061042856 0.11002171 0.04946338 0.06594343
0003f0 91 0e 9e 3d 87 93 64 bf cc 0e 9c bf fb 4d 8c 3e
       0.07717622 -0.8928761 -1.2192016 0.27403244

encoder.3.bias f4 [32]
000000 10 be 90 3e 92 64 b4 3e d6 cb d6 3d 70 14 96 3e
       0.28270006 0.3523298 0.10488097 0.29312468
000010 d4 75 6f 3e 8d de c3 3e b0 43 93 3e b2 4c b7 3e
       0.23384792 0.3825573 0.2876258 0.358007
000020 91 99 1b 3f 2a 2c 46 3e 81 69 21 3f 6a 95 0b 3e
       0.607812 0.19352785 0.6305161 0.13631216
000030 04 ad 80 3e ee be 50 bd 12 12 29 3f 9c 48 98 3e
       0.25132 -0.050963335 0.660432 0.29742897
000040 bd f2 c1 3e 21 9b 70 3e dd c0 dd 3e cb 94 80 3e
       0.37880507 0.23496677 0.43311206 0.2511352
000050 ce 57 09 3f d0 a7 8a 3e cc 92 d9 3e 85 0b a5 3b
       0.53649604 0.27081156 0.4249481 0.0050367736
000060 3b e8 01 3f 1e 95 79 3e 89 f9 29 3f 6f 08 d3 3e
       0.5074498 0.2437329 0.66396385 0.41217372
000070 06 dd b8 3e 5d 82 12 3e 25 c3 01 3f 2d fa 7e be
       0.36106128 0.14307542 0.5068839 -0.24900122

decoder.0.weight f4 [32, 16, 2, 2]
000000 b1 01 0c 3e a5 e9 60 3d 4d 9b 78 3d ad b0 ce 3d
       0.1367252 0.05491032 0.06069498 0.10092292
000010 1f 7d 40 3d 1e 8b 83 3e ad 84 fd bd c9 41 b6 bb
       0.046994325 0.25692075 -0.123788215 -0.0055620414
000020 f7 22 1d bd 23 28 ea 3c 01 67 81 3d 85 88 ce 3d
       -0.038363423 0.028583592 0.063184746 0.10084633
000030 69 cb 63 3c 8c b5 e3 bb 6f 13 42 3d 68 71 9d bc
       0.013903477 -0.0069491323 0.047381815 -0.019219115
000040 cc f3 78 3e 0c 48 b3 bd 62 bd cb 3d 29 d1 17 3e
       0.24311751 -0.08753976 0.09948231 0.14825882
000050 71 61 f5 bd b1 0b 08 be 0e a3 ca bc 37 63 fd 3d
       -0.11981476 -0.1328571 -0.024735954 0.12372439
000060 20 77 0d 3e 13 53 9c 3e b4 14 e8 3d 43 c8 30 3d
       0.13814974 0.3053213 0.11332074 0.043159734
000070 6b b8 1a bc c7 95 1e be c2 01 a5 3c a5 96 ea 3d
       -0.009443383 -0.15486823 0.02014244 0.114545144
000080 b5 07 84 3e 64 a0 cd bd 1c 28 d9 3d 1a 67 e5 3d
       0.2578713 -0.10040358 0.106033534 0.11201306
000090 6f 2e fb bb 05 df a1 bd df 7b 13 3b 4c e1 0c 3d
       -0.0076654474 -0.07903866 0.0022504253 0.034394547
0000a0 20 8a b9 3c 50 68 fb 3d ff 03 c7 bd b9 08 cf 3c
       0.022648871 0.122757554 -0.09717559 0.025272714
0000b0 59 3f 0f be 84 f9 58 3e 70 0e 0e 3d 6a b3 94 3d
       -0.13989009 0.21188933 0.034681737 0.07260783
0000c0 0f 35 a8 3d 4e 85 31 3e f9 5c 5b 3b 44 f9 d6 bd
       0.08213245 0.17336008 0.0033472164 -0.104967624
0000d0 ed f5 86 3e c8 98 ef bd 82 b5 12 3e 65 dc e7 3c
       0.263595 -0.116990626 0.14327052 0.028303334
0000e0 82 4a 94 3c 8e 0c fd bd 03 03 0e 3d f3 15 73 be
       0.018101934 -0.1235591 0.03467084 -0.23738842
0000f0 da 5e 1b 3d 1d 8f d4 3e c0 49 a3 bd f9 66 e1 3d
       0.037932254 0.41515437 -0.07973051 0.110059686
000100 07 bc 4f 3d a9 c4 94 3e 11 33 83 3d 6c 74 b6 3d
       0.050716426 0.2905629 0.064062245 0.089089245
000110 11 db aa 3e dd 2a 98 3e 6c 28 0c 3e 02 c8 84 3d
       0.3337026 0.29720202 0.13687295 0.06483461
000120 a9 ce 42 3e 21 38 bd 3e c9 96 e6 3d 43 fb 12 3e
       0.19024147 0.36956885 0.11259229 0.14353661
000130 81 45 fb 3c ea 6f dc be 82 3d 8a 3d 43 11 00 3e
       0.03067279 -0.43054134 0.06750013 0.12506585
000140 12 3f c4 3e 44 71 95 bd c7 d4 ba bd eb 4b 16 3d
       0.3832937 -0.07296994 -0.09122615 0.036693495
000150 99 27 4c 3c 7d 49 43 3c a7 db bf bd 72 e1 01 3e
       0.012460613 0.011919376 -0.09368067 0.12683657
000160 2b 07 86 3e 30 db 48 3f 30 a3 af 3c 45 dc b6 bd
       0.26177344 0.78459454 0.021440119 -0.08928732
000170 81 00 6d be ff b3 61 bf 0d 34 ac 3d 5a 48 1f 3d
       -0.23144723 -0.8816528 0.084083654 0.03888736
000180 64 f5 45 3e 11 45 0f bf 5d 14 0b be 26 8f bd bd
       0.1933189 -0.5596476 -0.13581987 -0.09255819
000190 85 56 1f bd 05 4d d1 3d c4 34 75 3d 60 8f 7a bc
       -0.03890087 0.102197684 0.059864774 -0.015292972
0001a0 f9 dc 17 3e e6 86 3d 3e 62 3e 06 3c 7c 0b ce 3d
       0.14830388 0.18508491 0.008193584 0.10060784
0001b0 86 78 a9 3e 96 7f 4b 3e 91 df 84 3e 76 21 6f 3c
       0.33099765 0.19872889 0.25951818 0.01459538
0001c0 22 33 a5 bd 0d 05 22 bd 66 ba fd bd 81 ee c6 be
       -0.080663934 -0.039555598 -0.12389068 -0.3885384
0001d0 f8 10 3f 3d 27 84 bb 3b 6c a9 a3 3d 65 01 bb 3d
       0.046647042 0.005722541 0.07991299 0.09131125
0001e0 b5 72 89 3d d5 b4 20 3d c6 72 87 bd f1 0b 11 3d
       0.06711332 0.039234955 -0.06613688 0.03541178
0001f0 ac 09 96 3d 86 bb 04 3f ec 17 58 bd 2c e2 31 3c
       0.073260635 0.5184864 -0.05275719 0.010857146
000200 c5 3f ca 3d ea 07 f6 be 37 5f 34 3e e7 f1 71 be
       0.09875444 -0.48052913 0.17614447 -0.23627435
000210 3c 9e e1 3e 3d 0e 12 bf 4e 5c 0d 3f 4e e0 22 be
       0.44066036 -0.57052976 0.5521897 -0.15905878
000220 40 28 97 3e 1e ee 47 3e 59 c3 03 bd 88 bd 10 bf
       0.29522896 0.19524428 -0.03216872 -0.565392
000230 76 3f 05 be b1 de 59 3d b9 61 23 3c b0 ec 37 bc
       -0.1301249 0.05319089 0.009972029 -0.011225864
000240 b6 c1 5d 3e 00 32 e5 ba 3c 18 6d bc 1b 41 8d be
       0.21655926 -0.0017486215 -0.01447111 -0.27588734
000250 62 6a 1d 3e 00 c7 0a be 40 c3 bb bd 9e 60 82 3e
       0.15372613 -0.13552475 -0.091681 0.25464338
000260 58 8a 99 bd af 97 1c bf 42 f5 83 bd e7 d0 09 be
       -0.0749709 -0.6116895 -0.064432636 -0.13458596
000270 85 bd 59 bd 21 8d d8 3e a9 70 16 3e bd 5c fd 3d
       -0.053159256 0.42295173 0.14691414 0.12371204
000280 74 2e 99 be c8 0d 2d 3e aa e3 04 be 95 39 05 bf
       -0.29918253 0.16899788 -0.12977472 -0.5204099
000290 8a 87 df bd 82 a3 cf bd 50 38 83 3e 03 96 29 be
       -0.10914524 -0.101386085 0.256289 -0.16561131
0002a0 4a 7f a6 bd 61 d9 f2 3e 3a 21 ad be 01 17 54 3e
       -0.08129747 0.47431472 -0.33814412 0.207119
0002b0 8e ac a3 3d 63 59 e8 3e ec a0 df 3d fb 46 a3 3d
       0.079918966 0.45380697 0.10919365 0.07972523
0002c0 70 99 05 3e 87 c1 72 3e c5 16 1a 3e d5 ff 6d 3e
       0.13046813 0.23706637 0.15047748 0.23242123
0002d0 4b 0b dc bd 53 02 00 3d a6 4f 65 bc 6f d1 73 be
       -0.107443415 0.031252217 -0.01399604 -0.23810361
0002e0 09 5b 9a bd ea 2f 07 bd 22 25 ec 3e 25 f3 ce be
       -0.07536895 -0.03300468 0.4612208 -0.4041988
0002f0 27 c9 88 3d 0a c0 02 bf 0a c1 e3 bd c0 a0 3f 3d
       0.06678992 -0.5107428 -0.11120804 0.046784163
000300 50 4d f9 3d d7 14 b8 3d e2 c7 2b 3e 17 1d a2 3d
       0.12172949 0.0898835 0.16775468 0.07915705
000310 3a 3e ae 3e e3 48 a3 bd e5 b9 77 3e a7 6b 3e 3e
       0.3403185 -0.079728864 0.24192007 0.18595754
000320 88 80 23 3e 32 02 67 3d 43 d1 5c 3e 83 b9 c4 bb
       0.15967 0.056398578 0.21564202 -0.00600356
000330 0d 92 37 3e d5 3f 8d 3e 26 09 28 3e 9f 74 3b 3e
       0.17926808 0.27587762 0.1640974 0.18306206
000340 13 67 b1 3e b4 a7 42 bd 35 e0 12 bc aa 3e 25 bd
       0.34648952 -0.047523215 -0.008964588 -0.040342964
000350 16 17 b7 3d 9a 32 a0 3d e1 b8 3b 3d 04 bd 86 3d
       0.0893995 0.078221515 0.04583061 0.065790206
000360 72 cc d0 3e 1e 3b bb 3e c0 d0 dd bb e5 2b 13 3c
       0.4078098 0.3656854 -0.0067692697 0.008982633
000370 ea d6 fa bd 98 e5 38 3c 61 de 24 3b 4e 31 30 3d
       -0.12248023 0.011285208 0.0025156962 0.04301577
000380 a4 b7 4a 3e 00 cb 83 3c bc 0e 88 3e 20 a9 d0 3d
       0.19796616 0.016088009 0.2657374 0.10188508
000390 78 86 27 3d 74 5d 05 3d 73 58 6f 3e d6 7a d4 3d
       0.040899724 0.032559827 0.23373584 0.103749916
0003a0 e7 41 b7 3e d8 f4 01 3f 1f ed cf 3c 47 d5 f0 3d
       0.35792467 0.50764227 0.025381623 0.117594294
0003b0 f6 55 19 3e 1f 37 3c 3d 27 81 c8 bd 56 93 ae 3e
       0.14974198 0.045951005 -0.09790259 0.34096783
0003c0 26 13 70 3e 03 a0 8c 3d 36 10 1d 3d d8 e9 a1 3e
       0.23444805 0.06866457 0.038345538 0.3162372
0003d0 16 a5 2e 3e 72 95 73 bd 7c 41 0b 3e 0f cd 5f 3e
       0.17055163 -0.059468694 0.13599199 0.21855567
0003e0 84 c1 99 3d 5b 78 46 bd c9 14 eb 3e 91 77 c2 3e
       0.07507613 -0.048454624 0.45914295 0.37981847
0003f0 4b 2b 08 be 68 da e4 3d 80 27 ef 3a 8f f8 dd bd
       -0.13297765 0.1117447 0.0018246025 -0.108384244

decoder.0.bias f4 [16]
000000 b4 7e 38 3e 5d f5 d5 3d d0 32 9d 3e c5 20 de 3e
       0.18017083 0.1044719 0.3070283 0.43384376
000010 4f fb 8b be 41 10 ac be 6c db 1c bd b4 6a 6e be
       -0.2734017 -0.3360615 -0.038295195 -0.23282892
000020 f3 dc ff 3d 32 2d 79 3e f4 ee a2 3e 59 2e 81 3d
       0.124933146 0.24333647 0.31822932 0.06307668
000030 83 f2 fa 3d 85 86 19 3e a8 a0 a6 bc 9c 11 07 3e
       0.12253287 0.14992721 -0.020340279 0.13190311

decoder.2.weight f4 [16, 3, 2, 2]
000000 1f ce cd bd fb ec 98 be 4a 12 1c bd 84 b1 ae be
       -0.1004908 -0.29868302 -0.03810338 -0.3411981
000010 ba 1d 43 be 99 cd 96 be 69 1c 3b be 0b 8c d7 be
       -0.19054309 -0.29453734 -0.18272556 -0.42099032
000020 db 07 d1 ba 24 76 54 bd dc dd 09 be bc c2 93 be
       -0.0015947776 -0.05187048 -0.13463539 -0.28859508
000030 55 06 04 3e d5 df 16 3d 42 09 de 3b 5c 92 4a bd
       0.1289304 0.036834557 0.006776006 -0.049455985
000040 7c db b4 be 22 54 1b bf c5 47 e7 be 97 f6 2d bf
       -0.35323703 -0.6067525 -0.45171943 -0.6795439
000050 44 c8 15 be c5 90 fa be 83 b0 9d bd 83 3c e4 be
       -0.14627177 -0.48938575 -0.076996826 -0.44577417
000060 9a e5 80 be 10 05 e0 be 50 fe 42 3e 10 54 ce 3d
       -0.25175172 -0.43753862 0.19042325 0.100746274
000070 1b 6a 8c be 0d e1 03 bf 87 ea 39 3e 19 3d 47 3d
       -0.27424702 -0.51515275 0.18155871 0.04864225
000080 5f 85 85 be 06 7a 05 bf 15 02 72 3e 40 4a 87 3d
       -0.26078317 -0.5213932 0.23633607 0.06605959
000090 ca 53 c7 be 63 69 7e be 10 46 0f bf 82 78 d7 be
       -0.38931113 -0.2484489 -0.5596628 -0.42084128
0000a0 72 2e c6 bd 9a e6 6a 3d 0a 5f 83 be 67 93 c5 bd
       -0.096768275 0.057348825 -0.25658447 -0.096472554
0000b0 1a ee 77 3e a9 bb cd 3e 36 e4 c0 3d 41 cb 87 3e
       0.24211922 0.40182236 0.09418528 0.26522258
0000c0 d7 7d eb 3e e4 48 1d bd 9e f6 52 3e 9f 15 d1 be
       0.45994446 -0.038399592 0.2060189 -0.40836808
0000d0 22 07 f8 3e 06 d5 79 bd 49 da 6c 3e 39 42 d7 be
       0.48442942 -0.06099417 0.23130144 -0.4204271
0000e0 e4 cf fa 3e d4 cc 8b bd 1a 20 82 3e e5 3c d4 be
       0.48986733 -0.06826177 0.25415117 -0.4145271
0000f0 8f 99 93 bd 51 ae 46 3e 6b 3a 60 3e 68 c7 ec 3e
       -0.07207023 0.19402434 0.21897285 0.46245885
000100 d8 89 8b bd eb 9f 80 3e a4 9e 64 3e 79 d3 f8 3e
       -0.06813401 0.25122008 0.22326142 0.4859884
000110 01 9a 6d 3d 5e bd c7 3e 03 b0 9e 3e a4 d0 18 3f
       0.058008198 0.39011663 0.3099366 0.5969336
000120 0a 14 9e bf fd 99 9d bf 80 48 65 bf 7f 55 71 bf
       -1.2349865 -1.2312618 -0.8956375 -0.9427108
000130 47 90 3d bf f4 6c 4e bf 83 ca 2d bf be a2 39 bf
       -0.74048275 -0.80635 -0.67887133 -0.7251395
000140 75 76 d5 ba 54 1d 77 3c 97 4d 65 3d f6 5d b5 3d
       -0.0016285913 0.015082676 0.0559822 0.08855812
000150 b1 a0 d9 3e 20 1f 9a 3e d2 19 d4 3e f7 64 8b 3e
       0.4250541 0.30101871 0.4142595 0.27225468
000160 55 22 c3 3e fa f8 81 3e e3 94 b8 3e 83 a6 5d 3e
       0.3811213 0.25385267 0.36051092 0.2164555
000170 ef 83 cd 3e 14 76 8e 3e 80 95 bb 3e 3f b3 69 3e
       0.4013972 0.2782446 0.36637497 0.22822283
000180 7e f5 c6 bc f4 cf cb bc 0d c5 47 bc e4 41 fa bb
       -0.024286982 -0.024879433 -0.012192977 -0.0076372493
000190 25 0b 40 3c d7 ff 08 3c 85 bd a2 3c 43 9a 98 3c
       0.011721407 0.008361778 0.01986576 0.018628245
0001a0 56 c8 6c bf 93 51 70 bf 3a c6 67 bf 60 12 70 bf
       -0.9249319 -0.9387447 -0.90536845 -0.9377804
0001b0 3f 0f ac 3e 55 aa c4 3d 95 94 50 3e d4 be f9 3b
       0.33605382 0.09602801 0.2036918 0.0076216254
0001c0 54 88 90 bd 87 a7 bd be ef 4a 68 be d3 c2 f1 be
       -0.070572525 -0.37041876 -0.22684835 -0.47218952
0001d0 06 7c c6 3d ac bd 61 be 8d 2f 08 bd ad 62 a1 be
       0.09691624 -0.2204501 -0.033248473 -0.31520596
0001e0 92 70 b1 3d a1 18 9b 3e 94 22 ac bd 90 02 7f 3e
       0.08664049 0.30292228 -0.08405033 0.24903321
0001f0 21 87 91 be 03 85 c9 bd 80 97 f1 be 22 63 26 be
       -0.28423408 -0.09839823 -0.47185898 -0.16248754
000200 c6 b3 04 be 54 08 2b 3d ca e3 92 be 17 e0 b3 bb
       -0.12959203 0.04175599 -0.28689414 -0.00548936
000210 58 f1 a5 be aa 95 48 3d a7 50 d4 3c ce 81 37 3e
       -0.32410693 0.048970856 0.025917364 0.1792061
000220 f5 03 07 bf 2d 86 82 bd 60 8d ef bd dc 05 ae 3d
       -0.5274041 -0.06373248 -0.11696887 0.08497211
000230 66 b6 0b bf 62 27 ae bd a0 bb 2a be 07 4b 79 3d
       -0.5457519 -0.085036054 -0.16673136 0.060862567
000240 68 99 a3 be eb cd 40 be 35 ae 50 bf 6d 4a d4 be
       -0.31952977 -0.18828551 -0.8151582 -0.41463032
000250 ca be a7 bd 24 02 9e bc 53 51 ce be de cb 5e be
       -0.08190687 -0.01928813 -0.4029642 -0.21757457
000260 cc 82 f9 bc b7 40 f9 bb 36 f2 71 be 12 fb 4c be
       -0.030457877 -0.0076065916 -0.23627552 -0.2001765
000270 27 d9 a0 bd 33 bb c1 bc 25 a0 08 be 51 5a e4 bd
       -0.078539185 -0.023648834 -0.1334234 -0.11150039
000280 b9 21 89 3d 3b 77 f4 3d 3f 51 20 3d 9b 02 86 3d
       0.06695885 0.11936804 0.039139982 0.06543466
000290 47 82 b6 be e3 f4 9f be 8a 7b b5 be 17 1c ad be
       -0.3564627 -0.3124152 -0.35445815 -0.33810493
0002a0 7b b8 65 bf cf 5a 64 bf 56 9c 2e bf 89 8e 3a bf
       -0.8973462 -0.8920106 -0.682073 -0.7287374
0002b0 9d 18 16 bf aa 1d 13 bf a8 75 07 bf 51 be 0a bf
       -0.58631307 -0.5746714 -0.52913904 -0.5419665
0002c0 26 18 56 3d f7 f4 bb 3d bd 68 2f 3d 98 86 c0 3d
       0.052269123 0.09177583 0.042824496 0.09400672
0002d0 fa 35 c8 3c c9 d3 51 bd ad 61 bf bd b3 93 00 be
       0.0244398 -0.051227365 -0.09344802 -0.12556343
0002e0 12 43 ad 3e 50 7b 8d 3e a3 7c 59 3e 03 7e 58 3e
       0.33840233 0.27633142 0.21238951 0.2114182
0002f0 0c e5 94 be 92 31 aa be 89 dc de be 55 dc d1 be
       -0.29081 -0.33240944 -0.4352763 -0.40988412

decoder.2.bias f4 [3]
000000 65 e9 80 be 9d 22 f1 3d c9 ab b8 be
       -0.25178066 0.1177418 -0.36068562
